data.pth (torch, 13290 bytes, 6 tensors)

l1.weight f4 [8, 204]
-0.21127243 -0.29895645 0.7169715 0.35997415 -0.3448106 -0.2685674 0.16363974 -0.20683809
0.24167901 -0.44638735 0.3029318 0.12777711 0.30142638 -0.80995697 -0.42790833 0.13165094
-0.108882256 0.3887899 -0.3987567 -0.305257 0.26126102 0.28494978 -0.022199078 0.30810294
0.30106604 -0.5128106 -0.043898918 -0.4041952 -0.32360232 -0.3754364 0.27779815 0.07817503
0.21597166 0.47224194 0.29082543 0.2589712 0.19087759 0.89247024 0.32436982 -0.28459916
-0.26690465 -0.42522493 -0.73336995 -0.025083264 0.23717254 -0.51798314 -0.5368421 0.2558624
0.09337819 -0.044466406 -0.7035723 -0.0016484946 -0.32803306 0.2308895 0.44834602 -0.023417838
-0.28258023 0.074742764 -0.047772717 -0.67404765 0.29651052 0.12641895 0.3395924 0.006276423
-0.61193496 -0.06604682 0.38929772 -0.10473365 -0.29610336 0.28539202 0.21299715 0.73791283
1.009525 0.88256204 0.05040924 0.4059994 -0.5915487 0.5187508 0.30006948 0.2847288
0.27161196 0.6626712 0.29721266 0.6849498 0.67224324 1.000031 0.3049866 0.28878516
0.07323757 -0.55624294 -0.5605143 -0.3236832 -0.598282 -0.537949 0.3032205 -0.018280925
0.036982283 0.27089423 0.25321904 -0.08559118 -0.47345698 -0.41070998 0.7239893 -0.4546281
0.29326934 0.33379847 -0.7155852 -0.34339103 0.640068 0.18287642 0.6622293 0.45421094
-0.14357468 0.5277746 0.18257222 0.37821865 -0.19562803 0.6521794 -0.12894458 0.39786705
0.79520744 0.27838305 -0.08711835 -0.12898701 0.39227775 0.79681534 0.31868106 -0.70433414
-0.55376947 0.038961165 0.0007305727 -0.50308573 -0.49436137 -0.121460654 0.012381952 0.25010285
-0.48844963 -0.079918325 0.16403498 0.4156535 0.43810457 -0.1122944 0.21241271 0.58805555
-0.21674833 0.0894539 0.23960043 0.29320982 -0.46693316 -0.4220045 -0.7783457 -0.0073341746
0.20674065 -0.5512244 0.65544385 0.6902191 0.16629995 -0.33716515 0.3525309 -0.27811942
0.25178462 -0.5574629 0.84709907 0.0032227742 0.3195891 0.18312816 0.23929958 -0.083358586
0.25499606 -0.60508215 -0.7054305 -0.3314236 -0.20003897 -0.57302547 1.2991049 0.7108617
-0.8499554 0.2685391 0.15413176 1.0231518 -0.06356942 0.23627163 -0.22789726 0.2465879
0.39987004 0.56529236 -0.7102276 0.22606881 0.09550577 -0.7009059 -0.3328805 0.25366727
0.33358377 -0.31831327 -0.03879041 -0.27543277 -0.5977547 0.1410807 0.30165762 0.66086066
0.2916567 -0.030489484 0.9281797 0.5756699 -0.03728573 0.3458373 -0.3576607 -0.19564772
-0.1422489 -0.17289218 -0.15918943 0.5950477 0.6454559 0.57368815 -0.038246945 -0.18696624
-0.08296839 0.25044808 0.4578686 0.5523194 0.39864144 -0.44896367 0.6070099 0.4144567
0.12002667 0.14172323 0.2083957 -0.022401655 -0.2136097 0.2497014 -0.107866764 0.4231175
-0.1182459 0.3858133 0.10168647 -0.28933564 -0.04040177 0.14410418 0.029612929 -0.065031424
0.12244146 -0.35133433 -0.37696916 0.8853082 0.6245597 0.35777408 -0.05993551 0.24325906
0.48663294 0.1787904 0.2525279 0.07315509 0.17028199 0.25853747 0.43181822 -0.029499542
00000000: cd57 58be d210 99be 728b 373f 884e b83e
00000010: 048b b0be ab81 89be 2d91 273e 5dcd 53be
00000020: b47a 773e e28c e4be e019 9b3e 01d8 023e
00000030: 8f54 9a3e 5759 4fbf cd16 dbbe 81cf 063e
00000040: a9fd debd 780f c73e d729 ccbe a54a 9cbe
00000050: 01c4 853e f0e4 913e d7da b5bc abbf 9d3e
00000060: 5425 9a3e 8e47 03bf 5acf 33bd acf2 cebe
00000070: 34af a5be 3339 c0be 8f3b 8e3e 3b1a a03d
00000080: ad27 5d3e b2c9 f13e 12e7 943e e097 843e
00000090: 6a75 433e ee78 643f cd13 a63e fbb6 91be
000000a0: baa7 88be 15b7 d9be 22be 3bbf 6b7b cdbc
000000b0: 5cdd 723e 8b9a 04bf 7c6e 09bf 6600 833e
000000c0: 113d bf3d 6822 36bd 501d 34bf 4d12 d8ba
000000d0: f3f3 a7be 4c6e 6c3e 9c8d e53e c4d6 bfbc
000000e0: 5bae 90be bc12 993d 53ad 43bd 638e 2cbf
000000f0: 3ad0 973e f873 013e 0edf ad3e 74aa cd3b
00000100: c5a7 1cbf 8e43 87bd 0852 c73e 997e d6bd
00000110: dc9a 97be e71e 923e ed1b 5a3e dbe7 3c3f
00000120: 1d38 813f 96ef 613f eb79 4e3d 27df cf3e
00000130: bc6f 17bf dacc 043f b5a2 993e f9c7 913e
00000140: b910 8b3e d2a4 293f 422c 983e df58 2f3f
00000150: 2218 2c3f 0401 803f 3427 9c3e a6db 933e
00000160: 94fd 953d f065 0ebf dd7d 0fbf ceb9 a5be
00000170: 0229 19bf 07b7 09bf b83f 9b3e e1c1 95bc
00000180: bc7a 173d a6b2 8a3e eda5 813e 6e4a afbd
00000190: f468 f2be 9448 d2be 5d57 393f 04c5 e8be
000001a0: 6627 963e a2e7 aa3e 9730 37bf f3d0 afbe
000001b0: 7fdb 233f f543 3b3e dc87 293f 568e e83e
000001c0: 3e05 13be 3c1c 073f 36f4 3a3e e0a5 c13e
000001d0: b752 48be 3bf5 263f 0c0a 04be 3bb5 cb3e
000001e0: b792 4b3f 3988 8e3e 1b6b b2bd 2c15 04be
000001f0: a1d8 c83e 17fc 4b3f 2a2a a33e 3e4f 34bf
00000200: d6c3 0dbf be95 1f3d e783 3f3a 3aca 00bf
00000210: ef1c fdbe 5dc0 f8bd acdd 4a3c 7b0d 803e
00000220: 1216 fabe 38ac a3bd c9f8 273e 89d0 d43e
00000230: 3e4f e03e 9bfa e5bd b882 593e cf8a 163f
00000240: 46f3 5dbe 9b33 b73d d159 753e 991f 963e
00000250: dd11 efbe f910 d8be aa41 47bf 8453 f0bb
00000260: d2b3 533e 0b1d 0dbf 2bcb 273f 33b2 303f
00000270: 894a 2a3e e9a0 acbe ee7e b43e ab65 8ebe
00000280: eae9 803e e3b5 0ebf 7cdb 583f 2e35 533b
00000290: 2fa1 a33e f385 3b3e f30a 753e e8b7 aabd
000002a0: d88e 823e aae6 1abf 1897 34bf 5bb0 a9be
000002b0: 04d7 4cbe ccb1 12bf 1249 a63f 08fb 353f
000002c0: ad96 59bf f57d 893e b7d4 1d3e a3f6 823f
000002d0: af30 82bd 31f1 713e e65d 69be 8a81 7c3e
000002e0: c4bb cc3e 00b7 103f 7ad1 35bf 957e 673e
000002f0: 8798 c33d 926e 33bf 506f aabe ade0 813e
00000300: 7ecb aa3e f5f9 a2be b1e2 1ebd 8605 8dbe
00000310: 7406 19bf 7677 103e de72 9a3e 2a2e 293f
00000320: 0754 953e 15c5 f9bc 2f9d 6d3f 1a5f 133f
00000330: ecb8 18bd 9611 b13e 4e1f b7be e057 48be
00000340: b2a9 11be a60a 31be 8e02 23be 0c55 183f
00000350: 993c 253f 3add 123f d4a8 1cbd 1474 3fbe
00000360: 55eb a9bd bb3a 803e c16d ea3e ce64 0d3f
00000370: bb1a cc3e 91de e5be 0065 1b3f ab33 d43e
00000380: 8bd0 f53d e51f 113e af65 553e ad83 b7bc
00000390: 80bc 5abe b9b1 7f3e 40e9 dcbd dba2 d83e
000003a0: e82a f2bd 5289 c53e ff40 d03d cd23 94be
000003b0: 547c 25bd 0c90 133e d096 f23c 322f 85bd
000003c0: 97c2 fa3d 18e2 b3be 1a02 c1be 8fa3 623f
000003d0: 25e3 1f3f 2a2e b73e f07e 75bd e718 793e
000003e0: f427 f93e d514 373e 564b 813e 56d2 953d
000003f0: 675e 2e3e 065f 843e 4717 dd3e 06a9 f1bc

l1.bias f4 [8]
1.6110938 0.35095263 0.78910446 0.64316005 0.7776456 0.64826936 0.86619747 0.7716044
00000000: 5238 ce3f 10b0 b33e c002 4a3f 23a6 243f
00000010: c813 473f fbf4 253f 1ebf 5d3f de87 453f

l2.weight f4 [8, 8]
-0.9498024 0.91266483 -0.80531454 -0.29406434 0.40150034 2.274348 1.0670234 0.72751135
1.1958566 -1.3638865 0.867781 1.2569162 -1.4921227 -0.6985552 1.1913799 0.8014633
2.3578527 -0.7888777 2.0300488 -0.62387514 1.2421031 -0.8491544 1.111427 -1.1366501
0.27704388 -0.76851684 -0.44688097 1.6866522 1.68234 1.5810281 -1.0492104 0.5584364
-1.1654468 0.4546534 1.8752009 1.6014501 0.9802188 -0.9979266 1.6452898 0.42613882
1.0304567 0.07485799 -0.96695936 0.22012725 -1.1991659 0.16619723 0.6862306 1.6061559
0.71323484 -0.48565444 -0.558183 1.8996031 -0.92964613 1.36155 1.2157407 -0.6949626
0.21597749 -0.38630337 -1.1150277 0.48948172 1.4848073 -1.5536057 1.4129483 2.028646
00000000: 4026 73bf 67a4 693f 1829 4ebf 9a8f 96be
00000010: 7491 cd3e eb8e 1140 3994 883f 2f3e 3a3f
00000020: d411 993f d593 aebf e526 5e3f a1e2 a03f
00000030: e0fd bebf 83d4 32bf 237f 983f b32c 4d3f
00000040: 0fe7 1640 e4f3 49bf 52ec 0140 48b6 1fbf
00000050: 3cfd 9e3f 2f62 59bf 3d43 8e3f c07d 91bf
00000060: b2d8 8d3e 85bd 44bf 95cd e4be 38e4 d73f
00000070: eb56 d73f 215f ca3f 874c 86bf b0f5 0e3f
00000080: 5c2d 95bf 55c8 e83e 9506 f03f 51fc cc3f
00000090: 9fef 7a3f 1e78 7fbf db98 d23f de2e da3e
000000a0: 01e6 833f 254f 993d a68a 77bf 0a69 613e
000000b0: 457e 99bf 9b2f 2a3e cfac 2f3f 8496 cd3f
000000c0: 8f96 363f b3a7 f8be 15e5 0ebf 3226 f33f
000000d0: 4afd 6dbf 4547 ae3f 649d 9b3f 12e9 31bf
000000e0: 3429 5d3e 8ec9 c5be 3ab9 8ebf 599d fa3e
000000f0: 2a0e be3f 8ddc c6bf 7ddb b43f 56d5 0140

l2.bias f4 [8]
0.19176571 0.8350933 0.8355476 0.34546798 -0.28535306 0.46572393 -0.41611093 0.363301
00000000: 3b5e 443e adc8 553f 73e6 553f 2ee1 b03e
00000010: cc19 92be 5e73 ee3e 7e0c d5be 9702 ba3e

l3.weight f4 [27, 8]
0.19484036 -1.2134708 -1.4489307 -1.0033989 0.17802891 -0.11163386 -2.09654 0.6068442
-0.53279865 0.34143487 -1.4620658 -0.59719115 0.44717687 -0.9460759 0.58345443 -1.7509484
0.047761675 -1.181595 -2.155767 0.3193439 0.21613608 -3.0363846 0.111689866 -1.2294039
-0.07417461 0.13812332 -0.21692638 -2.4838507 0.26243594 0.1444928 -0.55455226 -1.0279596
-1.1012774 -0.33346516 -0.2873119 -0.3103925 0.62397444 -1.9938239 -0.11614283 -0.61478955
-3.172573 0.089524254 0.05549485 0.3248414 -0.16543631 -2.7445402 0.11348009 -0.14817029
-1.1326567 -0.7376564 0.5172515 -0.32574543 0.6741449 -1.8495922 -2.0772629 -2.2883196
-1.0328627 -0.42104214 -0.9914997 -1.2739635 -0.67662346 -1.0036447 -0.79350835 -0.64533633
-0.24364875 0.04648502 -2.2141144 -2.358176 0.027310034 0.4248228 -0.22906561 0.59236085
0.52997977 -0.7473147 -2.0886595 -1.368819 -0.9774533 0.48657528 0.684619 -1.6662387
-0.28406882 -1.8544002 -2.4302645 0.6079947 -1.9677863 0.3230343 0.09761564 0.17658122
0.07462461 -0.41613302 -1.5732126 -0.4525263 -0.16566668 -1.1719683 -0.10145175 0.20685786
-2.2734866 1.0523473 0.96231383 -1.6698453 -2.524489 0.10433103 -0.5546802 -0.62408096
-2.3596032 0.716714 -0.21648008 -0.20033425 -0.5688714 0.5574205 -1.01673 0.5884708
-1.4861758 0.62478334 0.03668316 -1.9415988 0.1934885 -1.1074843 0.4798763 -0.5696594
-2.3904972 -0.84048045 0.7773347 0.45753077 -1.9238831 -2.0613341 0.0018689319 -0.903119
-0.06284699 -0.8587208 -2.9745026 0.42338848 -0.0100762835 -3.031728 -1.4087545 0.35517588
-0.13698548 -0.4171488 -0.3366978 0.7578916 -1.5476372 -1.3637483 0.5439092 -2.298434
0.8167649 -0.68294287 -1.7679011 0.47806296 -1.3816838 -0.026830817 -2.9395978 -1.6946821
-1.5176729 -0.014461699 -1.6557623 0.80162823 -0.6353269 0.18483822 -0.8453991 0.66537964
-0.43933937 0.2583975 -1.1049664 -0.71836436 -0.823187 0.34952787 0.32075074 -0.0733779
-1.3111205 0.11189817 -0.9230856 -0.6694736 0.22297251 -0.69528234 0.10781876 0.408344
-2.5226898 0.66524863 -0.040599555 0.16765012 -0.36120918 -0.4824731 0.42515293 -2.859065
-2.7170682 0.13759342 0.7903661 -1.1600785 0.10155631 -2.4521017 -1.3609083 0.3780021
-0.60274965 -0.5691806 0.06113928 0.19934544 -0.6379871 -0.97425383 -1.6803334 0.37111196
-1.6726136 0.46784917 -0.3770372 -0.08785548 -2.751616 0.6119814 0.690749 -0.2831346
-1.9652977 -0.756707 -1.1100395 0.23534903 0.83755165 -1.1391481 -1.6979568 0.5373545
00000000: 3b84 473e 0353 9bbf 9076 b9bf 606f 80bf
00000010: 364d 363e 4ba0 e4bd b62d 06c0 245a 1b3f
00000020: 7e65 08bf 8dd0 ae3e f924 bbbf 85e1 18bf
00000030: 5ef4 e43e 0832 72bf 455d 153f 141f e0bf
00000040: bfa1 433d 813e 97bf 16f8 09c0 0b81 a33e
00000050: c752 5d3e 2054 42c0 a8bd e43d 1b5d 9dbf
00000060: dce8 97bd 3370 0d3e f321 5ebe 69f7 1ec0
00000070: 015e 863e ecf5 133e 23f7 0dbf 2e94 83bf
00000080: a8f6 8cbf f2bb aabe 8c1a 93be c4eb 9ebe
00000090: cabc 1f3f 9f35 ffbf 4bdc edbd d962 1dbf
000000a0: 700b 4bc0 7e58 b73d 914e 633d 9d51 a63e
000000b0: 2368 29be 8ca6 2fc0 4068 e83d f4b9 17be
000000c0: e5fa 90bf 0dd7 3cbf 986a 043f 1bc8 a6be
000000d0: c394 2c3f 70bf ecbf e0f1 04c0 d473 12c0
000000e0: d834 84bf d692 d7be edd2 7dbf 3c11 a3bf
000000f0: 3237 2dbf 6e77 80bf 5d23 4bbf c334 25bf
00000100: 0f7f 79be 1467 3e3d 0db4 0dc0 5bec 16c0
00000110: 4bb9 df3c 6082 d93e 2d90 6abe f6a4 173f
00000120: c1ac 073f 0450 3fbf 99ac 05c0 7635 afbf
00000130: 613a 7abf 6520 f93e 3143 2f3f 4f47 d5bf
00000140: 7871 91be fc5c edbf 7489 1bc0 8aa5 1b3f
00000150: 6ce0 fbbf c064 a53e b5ea c73d b5d1 343e
00000160: cad4 983d 630f d5be 085f c9bf 87b1 e7be
00000170: 87a4 29be 0f03 96bf efc5 cfbd 8cd2 533e
00000180: ce80 11c0 51b3 863f 335a 763f 7ebd d5bf
00000190: 3a91 21c0 82ab d53d 86ff 0dbf c5c3 1fbf
000001a0: bd03 17c0 927a 373f f4ac 5dbe 6c24 4dbe
000001b0: 8ea1 11bf 1cb3 0e3f 3524 82bf 06a6 163f
000001c0: 023b bebf cdf1 1f3f 1541 163d 4f86 f8bf
000001d0: d921 463e 0cc2 8dbf 59b2 f53e 33d5 11bf
000001e0: e8fd 18c0 ba29 57bf 68ff 463f 7941 ea3e
000001f0: cd41 f6bf e6ec 03c0 f3f6 f43a cf32 67bf
00000200: ecb5 80bd 20d5 5bbf 405e 3ec0 60c6 d83e
00000210: ff16 25bc d507 42c0 1152 b4bf 9dd9 b53e
00000220: ec45 0cbe 8794 d5be a763 acbe 2f05 423f
00000230: fa18 c6bf 4e8f aebf a23d 0b3f 8b19 13c0
00000240: 8117 513f 58d5 2ebf 954a e2bf abc4 f43e
00000250: 04db b0bf 4dcc dbbc 5f22 3cc0 58eb d8bf
00000260: 1b43 c2bf c3f0 6cbc 05f0 d3bf 8237 4d3f
00000270: c9a4 22bf 3b46 3d3e 136c 58bf 5256 2a3f
00000280: 17f1 e0be ad4c 843e 8a6f 8dbf bae6 37bf
00000290: 62bc 52bf 51f5 b23e 7139 a43e 2747 96bd
000002a0: ccd2 a7bf de2a e53d 564f 6cbf 9f62 2bbf
000002b0: e852 643e 06fe 31bf 15d0 dc3d 7712 d13e
000002c0: c073 21c0 bc4d 2a3f b84b 26bd 79ac 2b3e
000002d0: 69f0 b8be b706 f7be a5ad d93e ecfa 36c0
000002e0: 72e4 2dc0 4ae5 0c3e 6f55 4a3f 747d 94bf
000002f0: c1fc cf3d 3cef 1cc0 3e32 aebf 7e89 c13e
00000300: cd4d 1abf d2b5 11bf 2f6d 7a3d 3621 4c3e
00000310: 1f53 23bf b368 79bf 2a15 d7bf 6302 be3e
00000320: 3418 d6bf ed89 ef3e 050b c1be 93ed b3bd
00000330: 7a1a 30c0 d0aa 1c3f edd4 303f 05f7 90be
00000340: e08e fbbf 8db7 41bf c615 8ebf 56ff 703e
00000350: c969 563f 9bcf 91bf a656 d9bf 1190 093f

l3.bias f4 [27]
0.20894414 0.11845935 -0.35800853 0.13055092 -0.27447122 -0.2928062 0.37018144 -0.17989889
0.08810854 0.3910851 -0.08322878 -0.4731465 0.21563043 0.43766892 -0.35296813 -0.15795097
0.22890453 0.5841206 0.8534354 -0.35515314 -0.515968 -0.81878763 9.857638e-05 0.51066256
0.029228356 0.29811108 0.11076637
00000000: 74f5 553e d19a f23d e54c b7be 24af 053e
00000010: 7e87 8cbe b2ea 95be 6c88 bd3e 6a37 38be
00000020: 4072 b43d 4e3c c83e da73 aabd 4240 f2be
00000030: 39ce 5c3e 2416 e03e 3db8 b4be e6bd 21be
00000040: f365 6a3e ed88 153f be7a 5a3f a2d6 b5be
00000050: 7b16 04bf 119c 51bf cbba ce38 c8ba 023f
00000060: 4e70 ef3c 04a2 983e 7bd9 e23d
